…
nv_2d: a 2-d convolutional layer\nlayer_average_pooling_2d: a pooling layer for 2-d data\nlayer_flatten: a flattening layer\n\nLeNet-5 is much deeper than the 2-hidden layer ANN in Section 32.2.3. Recall that ANN had 109,386 parameters. How many parameters are in LeNet-5?\n\nsummary(lenet5)\n\nModel: \"sequential\"\n________________________________________________________________________________\n Layer (type)                       Output Shape                    Param #     \n================================================================================\n Conv_1 (Conv2D)                    (None, 28, 28, 6)               156         \n Pool_1 (AveragePooling2D)          (None, 14, 14, 6)               0           \n Conv_2 (Conv2D)                    (None, 10, 10, 16)              2416        \n Pool_2 (AveragePooling2D)          (None, 5, 5, 16)                0           \n Flatten (Flatten)                  (None, 400)                     0           \n FC_1 (Dense)                       (None, 120)                     48120       \n FC_2 (Dense)                       (None, 84)                      10164       \n Output (Dense)                     (None, 10)                      850         \n================================================================================\nTotal params: 61706 (241.04 KB)\nTrainable params: 61706 (241.04 KB)\nNon-trainable params: 0 (0.00 Byte)\n________________________________________________________________________________\n\n\nNotice that pooling and flattening are parameter-free operations, like the dropout layer.\nLeNet-5 has only 56% of
…
