…
den\") %&gt;% \n    layer_dropout(rate=0.2,\n                  name=\"SecondDropOut\") %&gt;% \n    layer_dense(units=10, \n                activation=\"softmax\",\n                name=\"Output\")\n\nThe summary() function let’s us inspect whether we got it all right.\n\nsummary(modelnn)\n\nModel: \"sequential_1\"\n________________________________________________________________________________\n Layer (type)                       Output Shape                    Param #     \n================================================================================\n FirstHidden (Dense)                (None, 128)                     100480      \n FirstDropOut (Dropout)             (None, 128)                     0           \n SecondHidden (Dense)               (None, 64)                      8256        \n SecondDropOut (Dropout)            (None, 64)                      0           \n Output (Dense)                     (None, 10)                      650         \n================================================================================\nTotal params: 109386 (427.29 KB)\nTrainable params: 109386 (427.29 KB)\nNon-trainable params: 0 (0.00 Byte)\n________________________________________________________________________________\n\n\nThe total number of parameters in this network is 109,386, a sizeable network but not a huge network.\n\n\nSet u
…
nv_2d: a 2-d convolutional layer\nlayer_average_pooling_2d: a pooling layer for 2-d data\nlayer_flatten: a flattening layer\n\nLeNet-5 is much deeper than the 2-hidden layer ANN in Section 33.2.3. Recall that ANN had 109,386 parameters. How many parameters are in LeNet-5?\n\nsummary(lenet5)\n\nModel: \"sequential\"\n________________________________________________________________________________\n Layer (type)                       Output Shape                    Param #     \n================================================================================\n Conv_1 (Conv2D)                    (None, 28, 28, 6)               156         \n Pool_1 (AveragePooling2D)          (None, 14, 14, 6)               0           \n Conv_2 (Conv2D)                    (None, 10, 10, 16)              2416        \n Pool_2 (AveragePooling2D)          (None, 5, 5, 16)                0           \n Flatten (Flatten)                  (None, 400)                     0           \n FC_1 (Dense)                       (None, 120)                     48120       \n FC_2 (Dense)                       (None, 84)                      10164       \n Output (Dense)                     (None, 10)                      850         \n================================================================================\nTotal params: 61706 (241.04 KB)\nTrainable params: 61706 (241.04 KB)\nNon-trainable params: 0 (0.00 Byte)\n________________________________________________________________________________\n\n\nNotice that pooling and flattening are parameter-free operations, like the dropout layer.\nLeNet-5 has only 56% of
…
   up      0     (1,1)\n8  (2,1)  right    -10     (2,2)\n9  (3,4)  right      0     (3,4)\n10 (1,2)  stand     -1     (1,2)\n\n\nLet’s make sure we drew enough samples of the environment, we want to make sure all rewards and states have been visited.\n\nlibrary(dplyr)\n\nrobot_data %&gt;% group_by(Reward) %&gt;% summarize(count=n())\n\n# A tibble: 4 × 2\n  Reward count\n   &lt;dbl&gt; &lt;int&gt;\n1    -10   124\n2     -1   217\n3      0   644\n4     10    15\n\nrobot_data %&gt;% group_by(State) %&gt;% summarize(count=n())\n\n# A tibble: 16 × 2\n   State count\n   &lt;chr&gt; &lt;int&gt;\n 1 (1,1)    51\n 2 (1,2)    57\n 3 (1,3)    68\n 4 (1,4)    64\n 5 (2,1)    64\n 6 (2,2)    45\n 7 (2,3)    76\n 8 (2,4)    66\n 9 (3,1)    65\n10 (3,2)    53\n11 (3,3)    60\n12 (3,4)    59\n13 (4,1)    71\n14 (4,2)    61\n15 (4,3)    74\n16 (4,4)    66\n\n\nGiven this sampled version of the environment we can now train the model. The parameters in the control structure are the learning rate for gradient descent (\\(\\alpha\\)), the discounted return for the reward function (\\(\\gamma\\)), and the random exploration (\\(\\epsilon\\)). The input data to the ReinforcementLearning function is the data sampled from the environment in the previous step.\n\ncontrol &lt;- list(alpha=0.1, gamma=0.9, epsilon=0.1)\n\nrl &lt;- ReinforcementLearning(data   =robot_data,\n                            s      =\"State\", \n                            a      =\"Action\", \n                            r      =\"Reward\",\n                            s_new  =\"NextState\",\n                            control=control)\n\nrl\n\nState-Action function Q\n             right            up         down      stand          left\n(4,3)  7.941088679  1.0904210863  3.363969714  3.9165548  0.9976119134\n(2,4)  0.000000000  0.0000000000  0.000000000  0.0000000  0.0000000000\n(1,1)  0.002757743 -0.7172174847  0.001530369 -0.6860346 -0.4680874259\n(3,2)  0.459193835 -7.1757046352  0.499863832  0.1891378  0.0146491218\n(1,3)  0.012611843 -0.6557163193  0.317197237 -0.6548928  0.0085491200\n(3,4)  0.000000000  0.0000000000  0.000000000  0.0000000  0.0000000000\n(2,1) -7.712320755  0.0009734679  0.027714524 -0.7150762 -0.7406978249\n(4,2)  3.050116230  0.1896432524 -0.022589185  0.2631646 -7.1757046352\n(2,3) -5.695327900  0.0991057878  0.623888464  0.2525663 -9.0152290978\n(4,4)  0.000000000  0.0000000000  0.000000000  0.0000000  0.0000000000\n(3,1)  0.256321285  0.0083965753 -7.458134172 -0.6522334 -0.7330142645\n(1,2)  0.048677494 -0.6096084110 -8.332281830 -0.6836687  0.0003337767\n(3,3) -6.125795110  0.1578961518  2.271327820  0.7387191  0.1639584361\n(1,4) -0.673367570 -0.6773193387 -8.332281830 -0.7260261  0.0567553857\n(4,1)  0.000000000  0.0000000000  0.000000000  0.0000000  0.0000000000\n(2,2)  0.000000000  0.0000000000  0.000000000  0.0000000  0.0000000000\n\nPolicy\n  (4,3)   (2,4)   (1,1)   (3,2)   (1,3)   (3,4)   (2,1)   (4,2)   (2,3)   (4,4) \n\"right\" \"right\" \"right\"  \"down\"  \"down\" \"right\"  \"down\" \"right\"  \"down\" \"right\" \n  (3,1)   (1,2)   (3,3)   (1,4)   (4,1)   (2,2) \n\"right\" \"right\"  \"down\"  \"left\" \"right\" \"right\" \n\nReward (last iteration)\n[1] -1307\n\n\nThe result of ReinforcementLearning include the Q-function of (state, action) pairs and the learned optimal policy. It helps to rearrange those and to map the policy onto the grid environment.\n\n# The Q matrix of state-action pairs\nround(rl$Q[order(rownames(rl$Q)),],4)\n\n        right      up    down   stand    left\n(1,1)  0.0028 -0.7172  0.0015 -0.6860 -0.4681\n(1,2)  0.0487 -0.6096 -8.3323 -0.6837  0.0003\n(1,3)  0.0126 -0.6557  0.3172 -0.6549  0.0085\n(1,4) -0.6734 -0.6773 -8.3323 -0.7260  0.0568\n(2,1) -7.7123  0.0010  0.0277 -0.7151 -0.7407\n(2,2)  0.0000  0.0000  0.0000  0.0000  0.0000\n(2,3) -5.6953  0.0991  0.6239  0.2526 -9.0152\n(2,4)  0.0000  0.0000  0.0000  0.0000  0.0000\n(3,1)  0.2563  0.0084 -7.4581 -0.6522 -0.7330\n(3,2)  0.4592 -7.1757  0.4999  0.1891  0.0146\n(3,3) -6.1258  0.1579  2.2713  0.7387  0.1640\n(3,4)  0.0000  0.0000  0.0000  0.0000  0.0000\n(4,1)  0.0000  0.0000  0.0000  0.0000  0.0000\n(4,2)  3.0501  0.1896 -0.0226  0.2632 -7.1757\n(4,3)  7.9411  1.0904  3.3640  3.9166  0.9976\n(4,4)  0.0000  0.0000  0.0000  0.0000  0.0000\n\n# Map the moves to the 4x4 grid\np &lt;- rl$Policy[order(names(rl$Policy))]\nmatrix(p,nrow=4,ncol=4,byrow=TRUE)\n\n     [,1]    [,2]    [,3]    [,4]   \n[1,] \"right\" \"right\" \"down\"  \"left\" \n[2,] \"down\"  \"right\" \"down\"  \"right\"\n[3,] \"right\" \"down\"  \"down\"  \"right\"\n[4,] \"right\" \"right\" \"right\" \"right\"\n\n\nHow do we read the
…
